classifier_BERT.pt (torch, 4919 bytes, 1 tensors)

weight f4 [1, 768]
000000 1c 48 1b 3e 00 43 e9 bd 65 f2 c1 3c 09 92 15 bc
       0.15164226 -0.11389732 0.023675153 -0.009129056
000010 9d f1 b6 bc 99 c8 cf bd 79 a1 35 3c a3 c0 00 be
       -0.022332007 -0.10145683 0.011085861 -0.12573485
000020 bd e1 16 be c5 55 34 bd 8d 33 49 bd b1 e7 63 3d
       -0.1473455 -0.04402711 -0.04912143 0.05564088
000030 c4 42 e2 bd 5a 12 57 bc 5e 1d 13 bc ca 9a e9 bc
       -0.11047891 -0.013126934 -0.00897917 -0.028516192
000040 cd 67 d2 bd f6 2c 4f bd 3a bf 1b bd 14 f3 75 3d
       -0.10273705 -0.050579987 -0.038024165 0.06004627
000050 54 57 86 bd a3 d8 73 bd 07 6f ec 3a 9f 46 41 bc
       -0.06559625 -0.059532773 0.001803846 -0.011796623
000060 80 3c 29 bd e7 84 a5 bd b3 74 66 bd 05 84 09 3e
       -0.041317463 -0.0808199 -0.056263637 0.13429268
000070 00 6a 08 3e 73 14 8d 3d 55 17 15 bd e6 ad a7 3d
       0.13321686 0.06888666 -0.036399204 0.08187465
000080 37 ab 60 3d 6a 57 47 3d f5 1a c9 bd ca b8 0a 3d
       0.054850783 0.04866735 -0.09819595 0.033867635
000090 67 8c 71 bc 23 03 93 3b 1c 5c 37 3c 75 9e e5 bd
       -0.014742947 0.004486458 0.011191394 -0.11211864
0000a0 03 14 49 3d 9e a8 8a 3b 5b 46 60 3d 45 b7 bb 3d
       0.04909135 0.0042315265 0.054754596 0.09165815
0000b0 1f 4c a7 3b 0c 5d 81 3d e1 3b f9 bd bf 6b df bc
       0.00510551 0.063165754 -0.12169624 -0.027273057
0000c0 be 4d df 3d 1f 08 3b be 51 71 b4 3d 64 95 58 3c
       0.109035 -0.18264817 0.08810676 0.013219211
0000d0 56 72 b8 bd 79 30 2d 3d 31 e9 08 bd 4f 80 98 3c
       -0.09006183 0.042282555 -0.033425514 0.01861587
0000e0 23 37 65 bc 7a 99 e0 bd 49 8c b5 3c 1f f7 58 3d
       -0.013990196 -0.10966773 0.02216162 0.052970048
0000f0 dd 9d 5c 3d 6d f0 83 3b 88 d8 53 3c 85 65 12 bd
       0.053861488 0.0040264637 0.012930043 -0.035741348
000100 f0 ce c9 bd db 5d 8e 3d ea 19 dc bc 6d 09 8b bd
       -0.09853923 0.06951495 -0.026867826 -0.06788907
000110 39 c7 b8 3d bb 8f 32 3d 5b c4 a8 bb bc 30 16 3d
       0.09022374 0.043594103 -0.0051503605 0.03666757
000120 9e 35 d6 bd 6f 68 c8 bd db c9 87 bd a0 76 26 3c
       -0.104594454 -0.09785544 -0.06630298 0.010160118
000130 ab e0 cb bd 1b ed f1 bd c8 c6 ab bd df ad 61 3c
       -0.099549614 -0.118128024 -0.08387524 0.013774364
000140 b8 0b 99 bd 56 0d 58 3c f0 8a 22 3d a4 65 6d bd
       -0.07472938 0.013186773 0.039683282 -0.05795826
000150 47 57 fa 3c 67 81 08 3d f9 b0 60 3d 49 b2 0c be
       0.030559195 0.033326533 0.054856274 -0.13739885
000160 0a 8f 58 bc b5 13 e0 bd 98 99 a2 bd 8d f2 8a 3d
       -0.013217697 -0.10941259 -0.07939452 0.06784544
000170 fa f4 a9 bd cb 52 c0 3b f5 42 07 be b6 ee c9 3c
       -0.08298679 0.0058692447 -0.13209136 0.024649959
000180 c3 65 17 be b3 43 5c bc 19 49 a3 3c c0 d5 95 bc
       -0.14784913 -0.013443875 0.019932317 -0.0182904
000190 a4 d0 b7 3d 40 18 90 3d 8a 61 96 3d cf f3 bf 3d
       0.08975342 0.07035875 0.07342823 0.09372675
0001a0 4b 2b 53 3d ea 94 4d be e6 8e 31 3c c3 7f 1f be
       0.05155496 -0.20076337 0.010837292 -0.15576081
0001b0 0a c6 01 3e d1 82 43 bd 78 ea fd bd e8 de a4 bd
       0.12673202 -0.047732178 -0.12398237 -0.080503285
0001c0 06 c9 a1 3c 3b 75 5c bd 07 7f e1 bd 29 54 37 bd
       0.019749176 -0.053822737 -0.11010557 -0.044757996
0001d0 7f 91 75 3d a4 85 06 bd f6 a8 e8 3d 8e fb 25 be
       0.05995321 -0.032842293 0.11360352 -0.16209242
0001e0 3d 99 11 3e 36 a5 c5 3d f9 4b 2a 3d d4 cb 1f bb
       0.14218612 0.09650652 0.04157636 -0.0024382966
0001f0 92 8d 26 bc c5 66 c6 ba c3 cf f5 3d d7 89 02 3e
       -0.010165589 -0.0015136829 0.12002518 0.12747894
000200 51 f3 10 3d b4 23 88 3d 3f 16 1a 3e 00 75 08 be
       0.035388295 0.06647435 0.15047549 -0.13325882
000210 9d 8d 03 3d ab 4a 2f 3d 59 02 76 3b e0 de d8 3d
       0.032117475 0.04279582 0.003753802 0.10589385
000220 cb 34 9d 3d c7 93 fd bd f3 4a a2 3d 0a 9c 3e bc
       0.07676085 -0.12381702 0.07924452 -0.011633882
000230 58 cc 40 3d d2 77 06 3e 5c 9d 13 be ad 7a 67 3d
       0.047069877 0.13131645 -0.14415497 0.056513477
000240 3b f0 1a 3a d2 98 bf 3c 83 e3 0c be bd 7a 0a 3e
       0.0005910431 0.0233883 -0.13758664 0.13523383
000250 a3 b6 c5 3d a3 90 a9 bd 60 6b 00 bd 18 80 94 3d
       0.09653976 -0.082795404 -0.0313524 0.072509944
000260 6e e8 e8 bd 10 45 44 bd a3 ab 00 3e 6f 1b aa 3d
       -0.113724574 -0.047917426 0.12565474 0.08306014
000270 56 e7 3c bd 9a d0 5b 3d 62 27 40 3c b6 4d a3 3d
       -0.046119057 0.053665735 0.01172814 0.079738066
000280 18 22 78 bd 33 f9 dd bc 80 be 7f 3d ef 2a 07 bd
       -0.06057939 -0.027096367 0.062437534 -0.03299993
000290 e8 e7 45 bd 96 56 88 3c 8e 3a 00 be bd c9 d8 bc
       -0.048316866 0.01664285 -0.12522337 -0.026463384
0002a0 98 5e ab 3c e9 ce f8 bd 23 59 76 bd 4c 18 06 bc
       0.02091913 -0.1214884 -0.0601436 -0.008184504
0002b0 48 b5 30 bd f0 87 46 be b2 be fa bc 4c fb d3 3d
       -0.043141633 -0.19387794 -0.030608509 0.103506655
0002c0 7b b5 b5 bb 3f c5 c6 bb 68 52 8c 3d bd 25 d1 3b
       -0.005545316 -0.006065994 0.06851655 0.0063826726
0002d0 59 42 a5 3e fc 04 f6 bc 83 e2 a1 3d 84 57 bf 3c
       0.32277182 -0.030031674 0.07904532 0.02335716
0002e0 de cc d7 bc 7f 36 33 3d a9 53 98 3d 4a 29 cc bb
       -0.026342805 0.043753143 0.07437832 -0.006230508
0002f0 9e 61 ce bd 0c cb c8 3d 5f f0 f3 3d 8d 69 08 3d
       -0.10077213 0.09804353 0.119110815 0.033303786
000300 69 30 2b bd d2 86 b3 bc f9 f8 53 ba cb c1 3c bd
       -0.041794214 -0.021914873 -0.0008086111 -0.046083253
000310 ec 5d c2 bb ba a0 05 bd 52 5e 0b 3e a9 b5 98 bc
       -0.0059316065 -0.032623984 0.13610199 -0.01864131
000320 7a 4d c0 3c fc cf ce 3c 7f bd 77 3d 73 7b 0e bc
       0.023474444 0.025245659 0.060483452 -0.008696425
000330 4d 8c 16 3d b9 17 26 3e f4 df 96 bc 3e a3 a6 bc
       0.036754895 0.16219987 -0.018417336 -0.020341512
000340 46 5c 43 3d c6 d1 86 3d 35 f0 ac 3d 1e 09 c1 3d
       0.04769542 0.0658298 0.08444253 0.09425567
000350 b9 63 87 be 6f 66 9c bc 0e b8 a1 3d 22 dc 8b bd
       -0.2644327 -0.019091813 0.07896434 -0.068290964
000360 13 d2 b0 3d 4f 65 83 bb d1 92 ef 3c 39 32 07 3e
       0.086338185 -0.0040098797 0.029244812 0.13202752
000370 73 0a ce 3c 7d ab 6d 3c f2 89 0e 3d 51 89 16 be
       0.025151467 0.014506218 0.034799524 -0.1470082
000380 15 a8 6d bd b0 d9 ff 3c 78 78 3e 3e 3b dd aa 3d
       -0.058021624 0.031231731 0.18600643 0.083429776
000390 63 f8 96 bb 77 4e b7 bd e4 5e 7f 3d ab b7 84 3c
       -0.0046072467 -0.08950513 0.062346354 0.016200861
0003a0 9b e6 c6 3a b0 00 9e bc ed f9 ea bd dc c5 3b 3e
       0.0015174927 -0.019287437 -0.11473451 0.18337196
0003b0 78 75 6a bc bb bf 96 3c be 9f b2 3c f7 2d bc 3d
       -0.014310233 0.018401971 0.021804687 0.091884546
0003c0 87 70 5d bc c0 f7 23 be 58 85 2d bc ae bd 62 3b
       -0.013515598 -0.16012478 -0.010590874 0.0034597921
0003d0 79 27 92 3d 68 9e 12 3b cb b3 a3 bd 89 49 63 3d
       0.07136435 0.002237225 -0.07993277 0.05549005
0003e0 4c 97 92 3d 74 63 84 3d 4d f7 ff 3d a3 53 76 bc
       0.07157764 0.06464282 0.12498341 -0.015034589
0003f0 f3 29 26 3e 0e d7 cb 3c 0b 20 b2 bd d4 2c 76 bb
       0.1622694 0.02488282 -0.08697518 -0.003756334
